Features/OASIS/dasm_theta_1_1.npz (npz, 216504 bytes, 2 tensors)

features f8 [7, 3000]
0	0x3f11b2a945b50000	6.751211315236816e-05
1	0xbf65356fbe552000	-0.002588957070347675
2	0x3f61749b2d048000	0.0021307974603956836
3	0x3f63e8729adeb000	0.0024301756265767693
4	0xbf5783d95c415000	-0.001435243860233193
5	0x3f17d86234a60000	9.096240424888435e-05
6	0xbf3d192d06650000	-0.0004440054821266415
7	0xbf73624beb643400	-0.004732414780176164
8	0xbf7fe26ac0369800	-0.007784287448350469
9	0xbf6f71c602585800	-0.0038384311071792965
10	0xbf677a7b8188d800	-0.002866021368642002
11	0x3f6b9817fbdf5800	0.0033684223589984796
12	0xbf85c10e0efafa00	-0.010622129280247528
13	0x3f53e82eda8c7000	0.0012150247150151117
14	0x3f71fe83be22ec00	0.004393114681245258
15	0xbf6187dc2193b800	-0.0021399783550952733
16	0xbf852cdd4b44ac00	-0.010339478358750043
17	0xbf4e6c6cda5e6000	-0.0009284526356507783
18	0x3f72211049032800	0.004426063169555405
19	0x3f814222e39fe400	0.008426926204252894
20	0xbf7709dc487bfc00	-0.00562463806249891
21	0xbf61187fca82e000	-0.0020868774336939566
22	0x3f565f1a80a4d000	0.0013654478849050022
23	0x3f60b4008f9f8000	0.002038956733471764
24	0x3f66cd2f95aa2000	0.0027833871257065823
25	0x3f3716ad58498000	0.0003523038106205689
26	0x3f56274be4b26000	0.0013521424432720863
27	0x3f759b83fd904800	0.0052752643469080596
28	0xbf64786557422000	-0.0024988154710321453
29	0x3f61d290ed494800	0.0021756010631088785
30	0x3f510742cdb88000	0.0010393288020011937
31	0xbf799522e07a0c00	-0.006245743024581252
32	0x3f80fd2f2abaf000	0.00829541062500283
33	0x3f6837f74f04b000	0.00295637419198691
34	0xbf5ce6543acb0000	-0.0017638990931772014
35	0xbf7d94f8fc582c00	-0.007222149467916772
36	0xbef323f9e91c0000	-1.8253833849790624e-05
37	0x3f714924bebe4400	0.004220145736227643
38	0xbf6ae30d93acd000	-0.0032820954487764453
39	0xbf5ffcdf1fd45000	-0.0019523791264122181
40	0x3f9d63279f817b00	0.02869855795904197
41	0xbf4ff4744f836000	-0.0009751861498683567
42	0xbf7bb3c6b39b4000	-0.006763244798733581
43	0xbf767faa69fa8800	-0.005492845229726484
44	0xbf8d068d82abfc00	-0.01417265467671136
45	0x3f3b4bbbfcf88000	0.00041650142245153177
46	0xbf61904f2b304800	-0.0021440073264864523
47	0x3f31d13314858000	0.0002718686778475643
48	0xbf5d6776a1641000	-0.0017946871280978272
49	0xbf269cf2f38a8000	-0.00017252412523749427
50	0x3f4bfe8da7320000	0.0008543197312889106
51	0x3f6588452e0b7800	0.0026284552735509337
52	0xbf6ed368d13b9800	-0.003762917252845277
53	0xbf7ab799bf065800	-0.0065227513990944175
54	0x3f75f2fe02bd4000	0.005358688573167569
55	0xbf54f6a7807fc000	-0.0012795100938056692
56	0x3f605730b1020800	0.0019947005276330643
57	0xbf58be57d2dde000	-0.0015102250722218713
58	0x3f231ace830b0000	0.00014575739762356932
59	0xbedfeeee48100000	-7.613497587932727e-06
60	0x3f72de9423fc6400	0.004606798814870139
61	0x3ef0364f15040000	1.546110553451996e-05
62	0xbf5188e74bdca000	-0.001070237994506229
63	0x3f31edfdaa658000	0.00027358477600181175
64	0xbf5ee31a18525000	-0.001885200007824217
65	0x3f87b017fb61d800	0.01156634078891372
66	0x3f6cd04f4f5f4000	0.0035172986053808586
67	0xbf58c06762920000	-0.0015107164020093933
68	0xbf7f455a740b7c00	-0.0076344998676338705
69	0xbf788f31ee762c00	-0.005995936436543836
70	0x3f8198b3cb88e800	0.00859203781975637
71	0xbf529d5e81d64000	-0.001136152546084901
72	0xbf7402f61be31800	-0.0048856366758567304
73	0x3f7c2a33a8660000	0.006876184261614071
74	0x3f6bb0d6af01d000	0.0033802216567497823
75	0xbf7a9ea463304800	-0.006498949182985214
76	0xbf69a083d72ff800	-0.00312829733002129
77	0xbf600b18f847b000	-0.0019584167186987855
78	0xbf46935c35612000	-0.0006889534222489502
79	0xbf8162d6910d0c00	-0.008489300061802041
80	0x3f314c46f13b4000	0.00026394588460920687
81	0x3f89f6c563e2d000	0.01267770968511428
82	0x3f76781f1200cc00	0.0054856504139477735
83	0xbf51bec76db33000	-0.0010830829185577429
84	0xbfa50c2e9d98ab00	-0.041108566987835715
85	0x3f61b0b532bed800	0.002159456160337747
86	0xbf75149e30f2c800	-0.005146615919487729
87	0xbf8513f7624d3600	-0.01029198902838413
88	0xbf12e293e7b90000	-7.204082242484589e-05
89	0xbf74f2c9444d9c00	-0.005114351461862121
90	0x3f2cebb3f9270000	0.0002206475442800837
91	0x3f63da41c31bf800	0.0024234089295296357
92	0x3f66fe301bd3d000	0.0028067531226216857
93	0x3f39d9309ba38000	0.0003944152519022026
94	0xbf6c8d651ec6b000	-0.0034853911403924798
95	0x3f522e685797a000	0.001109697243345309
96	0x3f183783efc50000	9.237997796152086e-05
97	0x3f54696de38e1000	0.001245839417806316
98	0xbf4eb7967e380000	-0.0009374127225214579
99	0xbf6112460b639800	-0.002083908849374261
100	0xbf4dcf4348a42000	-0.0009097174200016767
101	0x3f692de70d0d9000	0.0030736458506215314
102	0x3f78aeead8a94000	0.0060261892018189656
103	0x3f510c22f112d000	0.0010404912211869899
104	0xbf817ed008a09000	-0.008542657149583022
105	0x3f696e9dadd8d000	0.003104503600093622
106	0xbf7567d3a82a7400	-0.005225970062977758
107	0x3f74217aa0f13c00	0.004914740579876842
108	0x3f8406a4a70be000	0.009778295848704488
109	0xbf461af7908ce000	-0.0006746014415517365
110	0x3f80da45c348f600	0.00822882177555595
111	0x3f7274ad9c078400	0.004505804216450748
112	0x3f61afdf45c12800	0.0021590576925847316
113	0x3f54df7d3cf29000	0.0012739871051872242
114	0xbf6e3a3ead620000	-0.0036898826757010283
115	0x3f6f4bbb21c95800	0.0038202910348372754
116	0x3f5e7ffd5a67e000	0.0018615698005515213
117	0xbf69d2ae6059b800	-0.0031522184170205136
118	0x3f6331c635f90000	0.00234307015469426
119	0xbf451a9035588000	-0.0006440357344139613
120	0xbf5be2136e9bb000	-0.001701849915145992
121	0x3f4fab3aeda20000	0.0009664571509944153
122	0x3f4e94ca1c782000	0.0009332644339687945
123	0x3f2cc7eff5220000	0.0002195816437655651
124	0xbf7101baeff3f800	-0.004152040695087678
125	0xbf735d0598bbc800	-0.0047273844354425165
126	0xbf78206c9f0d4000	-0.0058902972239849305
127	0x3f3624375ddfc000	0.000337852017650242
128	0xbf7b2fec8ebdc000	-0.006637500813539532
129	0xbf4ad9c45c07a000	-0.0008194168840960359
130	0xbf45c9072c9e6000	-0.000664833548614574
131	0x3f72a017005b2000	0.004547204827481721
132	0xbf6a268908dbd800	-0.0031922031838531595
133	0x3f63c770e5b87800	0.0024144368196763466
134	0xbf524a53529d4000	-0.0011163533876761278
135	0x3f835a568a396e00	0.009449649899742063
136	0x3f7baf3a68b33000	0.006758907470793218
137	0x3f503bbc04452000	0.0009908043003452605
138	0x3f1153104f1d0000	6.60875992055665e-05
139	0xbf43095c82594000	-0.0005809499459221712
140	0x3f7aa64b68045400	0.006506247096941031
141	0xbf532db5779a4000	-0.001170565809307078
142	0x3f76bfcc38304400	0.005554006321305316
143	0xbf808f5ee3305400	-0.008085957821132084
144	0xbf48433d0d660000	-0.000740437327110044
145	0xbf3cc8a308ad4000	-0.00043920498199145896
146	0x3f1309d4bfbd0000	7.262574211797101e-05
147	0x3f6164c96b32b800	0.002123254199964286
148	0x3f380ef8108c4000	0.00036710315957666495
149	0xbf57ea75272b1000	-0.001459707648494124
150	0x3f7c8029a396cc00	0.006958162929936229
151	0xbf649fddcb8e8000	-0.002517636483801766
152	0xbf52dab7d48ec000	-0.0011507792680554019
153	0x3f5d0b657b952000	0.0017727366487907403
154	0xbf605accf183e800	-0.0019964220811035105
155	0xbf83b09ce8e10c00	-0.009614206177621654
156	0xbf92750870ced700	-0.018024570355655634
157	0x3f844338b8305600	0.00989383995151183
158	0x3f8545edf38ace00	0.0103872861812766
159	0x3f8c641f48c44800	0.013862842949070142
160	0xbf7b0cc429478c00	-0.006603971724390867
161	0xbf8482a32c2a5e00	-0.010014796052288055
162	0xbf7048a4ba215400	-0.003975528206940915
163	0xbf4b6082f5282000	-0.0008354796830767341
164	0x3f64183ba2786000	0.0024529614199870764
165	0x3f5a52e54893c000	0.001606677922890043
166	0xbf70e052d2d2d400	-0.004120181588565863
167	0x3f3f8b7b983f0000	0.00048133628319746435
168	0x3f6b77a845ae2800	0.0033529554907021364
169	0xbf426a8678592000	-0.0005620152084668817
170	0x3f89974ee0c90c00	0.012495628580955653
171	0x3f3a00efcf474000	0.0003967843506673674
172	0xbf73e6a2d54c1400	-0.004858623568684273
173	0xbf298995055c0000	-0.00019483512976847805
174	0xbf816b4da64e3400	-0.008505446088543422
175	0xbf573ec834510000	-0.0014187770004951972
176	0xbf5d0dc5a985e000	-0.0017733030600464161
177	0xbf64d602dcea5800	-0.0025434547345168923
178	0xbf6ed11504d01000	-0.0037618074916299094
179	0xbf6fd64a3b45a800	-0.0038863611063577608
180	0x3f4aa7e9ef06a000	0.0008134739164704641
181	0xbf6dfbb050459800	-0.0036600535988098315
182	0xbf69c0792fa1e000	-0.003143536273508829
183	0xbf54b0379b733000	-0.0012627165831871068
184	0xbf36e893acb58000	-0.000349556020145414
185	0xbf642688f06bc800	-0.002459781131045169
186	0x3f4cabc13b0c4000	0.0008749669560490503
187	0x3f40234e4b164000	0.0004924900332969884
188	0xbf59d7a03b7ef000	-0.0015772881288134144
189	0xbf35d21dde9c0000	-0.0003329585002660451
190	0x3f23cce3ba508000	0.00015106468086489855
191	0xbf4c66b7a17d8000	-0.0008667370447987821
192	0x3f335e889b608000	0.0002955516350784393
193	0xbf7e1bbb9ce59400	-0.007350666868977562
194	0xbf6d4158e81e4000	-0.0035711990794382587
195	0x3f4d644eb8d50000	0.0008969673523679944
196	0x3f63014be2ddf000	0.0023199541237186594
197	0x3f4ffbb2e2816000	0.0009760497532722567
198	0xbf53869b14648000	-0.0011917604875364418
199	0x3f5724f88a4ef000	0.0014126231337590056
200	0xbf8e70ed711d6600	-0.014863829626551528
201	0xbf713b372430bc00	-0.004206862827273561
202	0x3f6e590183b3b800	0.003704550702983589
203	0x3f733afccbd83400	0.004694926724835291
204	0xbf150caa238f0000	-8.029735989989462e-05
205	0xbf7282664e18a800	-0.004518890027194189
206	0xbf6ba3b31ee2b800	-0.0033739565324912846
207	0xbf62beac88b49800	-0.00228818605468728
208	0x3f56aaa9b2b5c000	0.0013834626396054261
209	0x3f773a27635e8000	0.005670694217684513
210	0xbf6af39bb9dcd000	-0.0032899896167695175
211	0xbf7c49bdcef14000	-0.006906262816372077
212	0x3f71fc8d89fea400	0.004391243826753488
213	0x3f1434da55bf0000	7.70815144610637e-05
214	0x3f5a595c1d3eb000	0.001608219104109132
215	0xbf5c6f909040f000	-0.0017355834725227837
216	0xbf6410050e7c6000	-0.002449045063155353
217	0x3f460e44295a4000	0.0006730873889910782
218	0xbf52759fc0e5d000	-0.0011266765683020097
219	0x3f516edc99ee8000	0.0010640291509176336
220	0xbf7f8ed72eb36800	-0.007704582744930022
221	0x3f476e524152e000	0.0007150556217743187
222	0xbf693a4c668cb800	-0.003079556674854267
223	0x3f5b8a20e62fc000	0.0016808816224020973
224	0xbf7a18f96ec64000	-0.00637147364285795
225	0xbf9177f9b63e0c00	-0.017059232471648755
226	0xbf94f4f754143100	-0.02046572161366189
227	0xbf7e2d25b3b74000	-0.007367274545188707
228	0x3f65d8ee0a1db800	0.002666916771821626
229	0xbf6189ca5f241800	-0.002140898949735792
230	0x3f4d8e331d0ca000	0.0009019612863072624
231	0xbf82097ed65f3c00	-0.008807173649897138
232	0xbf40901d4387a000	-0.000505461014708608
233	0xbf65cddd5adac800	-0.002661640485563943
234	0xbf620dfe27531800	-0.0022039379060485587
235	0xbf6bb3b5c47a8800	-0.00338159085716061
236	0xbf5a8f6553d21000	-0.0016211022878289683
237	0xbf73147669fa0c00	-0.004658186487747962
238	0x3f7b11e2f63f2800	0.006608854837347522
239	0x3f6dc2795fd4c000	0.0036327715485171552
240	0x3f6054a5640cf800	0.001993487385703041
241	0xbf8188e2e63ca200	-0.008561871196051563
242	0x3f7e8cc490f8e800	0.007458465420819849
243	0xbf7019924a4bcc00	-0.003930636831444012
244	0xbf7d5a7d03c5b000	-0.007166374529656849
245	0xbf6d2401a5e2c000	-0.0035572082698180907
246	0xbf696ad70b5e8800	-0.0031027031026988894
247	0xbf7b5dba98f85000	-0.006681183716427341
248	0xbf6b9d06dbd25800	-0.0033707746466218325
249	0xbf6419e3a7f15000	-0.002453751221347389
250	0x3f7e2394ae98ac00	0.007358151234750032
251	0x3f70c1f0dd6b6c00	0.004091206434817529
252	0x3f9345e8e5aca300	0.018821372049532492
253	0x3f3602839523c000	0.0003358432051205895
254	0x3f5e52d973a94000	0.0018508075287577697
255	0xbf6d243ddbd6d800	-0.0035573204210903597

Y f8 [3000, 2]
0	0x4020000000000000	8.0
1	0x401c000000000000	7.0
2	0x4020000000000000	8.0
3	0x401c000000000000	7.0
4	0x4020000000000000	8.0
5	0x401c000000000000	7.0
6	0x4020000000000000	8.0
7	0x401c000000000000	7.0
8	0x4020000000000000	8.0
9	0x401c000000000000	7.0
10	0x4020000000000000	8.0
11	0x4020000000000000	8.0
12	0x4020000000000000	8.0
13	0x4020000000000000	8.0
14	0x4020000000000000	8.0
15	0x4020000000000000	8.0
16	0x4020000000000000	8.0
17	0x4020000000000000	8.0
18	0x4020000000000000	8.0
19	0x4020000000000000	8.0
20	0x4008000000000000	3.0
21	0x4018000000000000	6.0
22	0x4008000000000000	3.0
23	0x4018000000000000	6.0
24	0x4008000000000000	3.0
25	0x4018000000000000	6.0
26	0x4008000000000000	3.0
27	0x4018000000000000	6.0
28	0x4008000000000000	3.0
29	0x4018000000000000	6.0
30	0x4008000000000000	3.0
31	0x4008000000000000	3.0
32	0x4008000000000000	3.0
33	0x4008000000000000	3.0
34	0x4008000000000000	3.0
35	0x4008000000000000	3.0
36	0x4008000000000000	3.0
37	0x4008000000000000	3.0
38	0x4008000000000000	3.0
39	0x4008000000000000	3.0
40	0x4020000000000000	8.0
41	0x4014000000000000	5.0
42	0x4020000000000000	8.0
43	0x4014000000000000	5.0
44	0x4020000000000000	8.0
45	0x4014000000000000	5.0
46	0x4020000000000000	8.0
47	0x4014000000000000	5.0
48	0x4020000000000000	8.0
49	0x4014000000000000	5.0
50	0x401c000000000000	7.0
51	0x4010000000000000	4.0
52	0x401c000000000000	7.0
53	0x4010000000000000	4.0
54	0x401c000000000000	7.0
55	0x4010000000000000	4.0
56	0x401c000000000000	7.0
57	0x4010000000000000	4.0
58	0x401c000000000000	7.0
59	0x4010000000000000	4.0
60	0x4020000000000000	8.0
61	0x4018000000000000	6.0
62	0x4020000000000000	8.0
63	0x4018000000000000	6.0
64	0x4020000000000000	8.0
65	0x4018000000000000	6.0
66	0x4020000000000000	8.0
67	0x4018000000000000	6.0
68	0x4020000000000000	8.0
69	0x4018000000000000	6.0
70	0x4008000000000000	3.0
71	0x4020000000000000	8.0
72	0x4008000000000000	3.0
73	0x4020000000000000	8.0
74	0x4008000000000000	3.0
75	0x4020000000000000	8.0
76	0x4008000000000000	3.0
77	0x4020000000000000	8.0
78	0x4008000000000000	3.0
79	0x4020000000000000	8.0
80	0x4014000000000000	5.0
81	0x4008000000000000	3.0
82	0x4014000000000000	5.0
83	0x4008000000000000	3.0
84	0x4014000000000000	5.0
85	0x4008000000000000	3.0
86	0x4014000000000000	5.0
87	0x4008000000000000	3.0
88	0x4014000000000000	5.0
89	0x4008000000000000	3.0
90	0x4010000000000000	4.0
91	0x4014000000000000	5.0
92	0x4010000000000000	4.0
93	0x4014000000000000	5.0
94	0x4010000000000000	4.0
95	0x4014000000000000	5.0
96	0x4010000000000000	4.0
97	0x4014000000000000	5.0
98	0x4010000000000000	4.0
99	0x4014000000000000	5.0
100	0x4010000000000000	4.0
101	0x4014000000000000	5.0
102	0x4010000000000000	4.0
103	0x4014000000000000	5.0
104	0x4010000000000000	4.0
105	0x4014000000000000	5.0
106	0x4010000000000000	4.0
107	0x4014000000000000	5.0
108	0x4010000000000000	4.0
109	0x4014000000000000	5.0
110	0x4022000000000000	9.0
111	0x401c000000000000	7.0
112	0x4022000000000000	9.0
113	0x401c000000000000	7.0
114	0x4022000000000000	9.0
115	0x401c000000000000	7.0
116	0x4022000000000000	9.0
117	0x401c000000000000	7.0
118	0x4022000000000000	9.0
119	0x401c000000000000	7.0
120	0x4000000000000000	2.0
121	0x4020000000000000	8.0
122	0x4000000000000000	2.0
123	0x4020000000000000	8.0
124	0x4000000000000000	2.0
125	0x4020000000000000	8.0
126	0x4000000000000000	2.0
127	0x4020000000000000	8.0
128	0x4000000000000000	2.0
129	0x4020000000000000	8.0
130	0x4020000000000000	8.0
131	0x401c000000000000	7.0
132	0x4020000000000000	8.0
133	0x401c000000000000	7.0
134	0x4020000000000000	8.0
135	0x401c000000000000	7.0
136	0x4020000000000000	8.0
137	0x401c000000000000	7.0
138	0x4020000000000000	8.0
139	0x401c000000000000	7.0
140	0x4020000000000000	8.0
141	0x4018000000000000	6.0
142	0x4020000000000000	8.0
143	0x4018000000000000	6.0
144	0x4020000000000000	8.0
145	0x4018000000000000	6.0
146	0x4020000000000000	8.0
147	0x4018000000000000	6.0
148	0x4020000000000000	8.0
149	0x4018000000000000	6.0
150	0x4008000000000000	3.0
151	0x4020000000000000	8.0
152	0x4008000000000000	3.0
153	0x4020000000000000	8.0
154	0x4008000000000000	3.0
155	0x4020000000000000	8.0
156	0x4008000000000000	3.0
157	0x4020000000000000	8.0
158	0x4008000000000000	3.0
159	0x4020000000000000	8.0
160	0x4014000000000000	5.0
161	0x4018000000000000	6.0
162	0x4014000000000000	5.0
163	0x4018000000000000	6.0
164	0x4014000000000000	5.0
165	0x4018000000000000	6.0
166	0x4014000000000000	5.0
167	0x4018000000000000	6.0
168	0x4014000000000000	5.0
169	0x4018000000000000	6.0
170	0x4020000000000000	8.0
171	0x401c000000000000	7.0
172	0x4020000000000000	8.0
173	0x401c000000000000	7.0
174	0x4020000000000000	8.0
175	0x401c000000000000	7.0
176	0x4020000000000000	8.0
177	0x401c000000000000	7.0
178	0x4020000000000000	8.0
179	0x401c000000000000	7.0
180	0x4020000000000000	8.0
181	0x401c000000000000	7.0
182	0x4020000000000000	8.0
183	0x401c000000000000	7.0
184	0x4020000000000000	8.0
185	0x401c000000000000	7.0
186	0x4020000000000000	8.0
187	0x401c000000000000	7.0
188	0x4020000000000000	8.0
189	0x401c000000000000	7.0
190	0x401c000000000000	7.0
191	0x4008000000000000	3.0
192	0x401c000000000000	7.0
193	0x4008000000000000	3.0
194	0x401c000000000000	7.0
195	0x4008000000000000	3.0
196	0x401c000000000000	7.0
197	0x4008000000000000	3.0
198	0x401c000000000000	7.0
199	0x4008000000000000	3.0
200	0x4014000000000000	5.0
201	0x4008000000000000	3.0
202	0x4014000000000000	5.0
203	0x4008000000000000	3.0
204	0x4014000000000000	5.0
205	0x4008000000000000	3.0
206	0x4014000000000000	5.0
207	0x4008000000000000	3.0
208	0x4014000000000000	5.0
209	0x4008000000000000	3.0
210	0x4014000000000000	5.0
211	0x4008000000000000	3.0
212	0x4014000000000000	5.0
213	0x4008000000000000	3.0
214	0x4014000000000000	5.0
215	0x4008000000000000	3.0
216	0x4014000000000000	5.0
217	0x4008000000000000	3.0
218	0x4014000000000000	5.0
219	0x4008000000000000	3.0
220	0x3ff0000000000000	1.0
221	0x4022000000000000	9.0
222	0x3ff0000000000000	1.0
223	0x4022000000000000	9.0
224	0x3ff0000000000000	1.0
225	0x4022000000000000	9.0
226	0x3ff0000000000000	1.0
227	0x4022000000000000	9.0
228	0x3ff0000000000000	1.0
229	0x4022000000000000	9.0
230	0x4010000000000000	4.0
231	0x401c000000000000	7.0
232	0x4010000000000000	4.0
233	0x401c000000000000	7.0
234	0x4010000000000000	4.0
235	0x401c000000000000	7.0
236	0x4010000000000000	4.0
237	0x401c000000000000	7.0
238	0x4010000000000000	4.0
239	0x401c000000000000	7.0
240	0x4020000000000000	8.0
241	0x4018000000000000	6.0
242	0x4020000000000000	8.0
243	0x4018000000000000	6.0
244	0x4020000000000000	8.0
245	0x4018000000000000	6.0
246	0x4020000000000000	8.0
247	0x4018000000000000	6.0
248	0x4020000000000000	8.0
249	0x4018000000000000	6.0
250	0x4008000000000000	3.0
251	0x4020000000000000	8.0
252	0x4008000000000000	3.0
253	0x4020000000000000	8.0
254	0x4008000000000000	3.0
255	0x4020000000000000	8.0
